model/model.pth (torch, 16799 bytes, 4 tensors)

linear1.weight f4 [256, 11]
0	0x3e87e684	0.26543057
1	0xbe3535a9	-0.17696251
2	0x3de003ed	0.10938249
3	0xbdd403ed	-0.10352311
4	0xbeacca09	-0.3374789
5	0xbd9cca6c	-0.076557964
6	0xbe95e24d	-0.29274216
7	0x3e81680f	0.25274703
8	0x3edd577b	0.43230805
9	0x3e267f75	0.16259558
10	0x3ee985b2	0.45609814
11	0x3e9ba923	0.3040248
12	0xbc7bcb8e	-0.015368355
13	0xbd4b33c0	-0.0496099
14	0xbde16eba	-0.110074475
15	0x3d93138f	0.07181465
16	0xbe4ee703	-0.20205311
17	0xbd8fed3b	-0.0702767
18	0x3e5a4680	0.21315956
19	0x3dd673d0	0.10471308
20	0x3ebe19c9	0.37129048
21	0x3e9ae1c9	0.30250385
22	0xbeee7890	-0.46576357
23	0x3ec7fc85	0.39059845
24	0x3dd0a6f6	0.10188095
25	0x3e47474d	0.19460793
26	0xbd96bd11	-0.0736028
27	0xbea37e60	-0.31932354
28	0xbdd83ee2	-0.10558869
29	0x3eaf342a	0.34219486
30	0x3e7971c6	0.24359807
31	0xbdf732ed	-0.1207026
32	0x3e41a3ac	0.18910092
33	0x3daba747	0.08381515
34	0x3eb9831e	0.36232847
35	0xbf272bd4	-0.6530125
36	0x3e3c9ddc	0.18419594
37	0xbe9ed86f	-0.310245
38	0x3e659b2c	0.22422475
39	0xbe08b813	-0.13351469
40	0x3dd6d981	0.10490704
41	0x3eac96fa	0.33708936
42	0xbe3c41a1	-0.1838441
43	0x3e96797e	0.29389566
44	0xbf110fa6	-0.566645
45	0x3ee7b838	0.45257735
46	0x3e267b3c	0.16257948
47	0x3e76b551	0.24092604
48	0x3e5facf0	0.21843314
49	0x3c7481bd	0.01492351
50	0x3e5682fe	0.20948407
51	0xbe0b4bd8	-0.13603151
52	0xbe5f9abf	-0.21836375
53	0xbe0f4f9d	-0.13995214
54	0xbe128330	-0.14307857
55	0x3d117a8f	0.03551727
56	0xbeb63123	-0.35584363
57	0xbe9b72af	-0.30360934
58	0x3df6ea81	0.12056447
59	0xbe7c50a5	-0.24640138
60	0xbe2702e9	-0.16309704
61	0x3eeedf45	0.46654716
62	0x3d86fc81	0.0659113
63	0x3aa56a7c	0.0012620236
64	0xbe58de2e	-0.21178505
65	0xbe92a4b5	-0.28641286
66	0xbefcb64d	-0.49357834
67	0x3e98549e	0.29752058
68	0x3e89f73c	0.26946437
69	0x3e566837	0.20938192
70	0xbeadbde6	-0.33933944
71	0xbe3eca95	-0.18631966
72	0x3ba954cb	0.005167579
73	0x3ec318f2	0.3810497
74	0xbea0160a	-0.31266814
75	0xbec3aeed	-0.38219395
76	0x3e712095	0.23547585
77	0x3d2971c4	0.04136826
78	0xbbcc6d82	-0.0062386403
79	0xbf12d088	-0.57349443
80	0xbec66ebf	-0.38756368
81	0x3d126af9	0.03574655
82	0x3edf1ed3	0.43578205
83	0xbeaa9bd5	-0.33322015
84	0x3eddef0d	0.43346444
85	0xbcbceb40	-0.023061395
86	0xbeaa8ebb	-0.3331202
87	0x3e25b80c	0.1618349
88	0x3df351f0	0.11880863
89	0x3e6ac54b	0.22926824
90	0x3e1b2e1d	0.1515431
91	0x3eb4bc19	0.35299757
92	0xbe0f1be0	-0.13975477
93	0xbe8a6c72	-0.27035862
94	0x3cae3714	0.021266498
95	0xbe1ea074	-0.15490896
96	0xbefcb421	-0.49356177
97	0xbe0ee58e	-0.13954756
98	0x3e98c91d	0.29840937
99	0xbeac2b92	-0.33626992
100	0x3e999d3b	0.3000277
101	0xbd5c8f98	-0.05384788
102	0x3ee455f8	0.4459684
103	0x3ecd5d8c	0.40110433
104	0xbed5dc05	-0.41769424
105	0xbe2df880	-0.16989326
106	0x3e9eac47	0.30990812
107	0x3f02f733	0.51158446
108	0xbed05ba9	-0.4069493
109	0xbeaf426f	-0.34230372
110	0xbf0190cf	-0.50611585
111	0x3d458871	0.048225824
112	0x3e9e1225	0.30873218
113	0xbebebcb0	-0.37253332
114	0x3e68b0c7	0.22723685
115	0x3e052450	0.13002133
116	0xbea329be	-0.31867784
117	0x3de68793	0.112563275
118	0x3ec43fd2	0.3832994
119	0x3ebda05d	0.3703641
120	0xbe4adba8	-0.19810355
121	0x3e17d83d	0.14828582
122	0x3d786804	0.060646072
123	0xbdd4e3d8	-0.1039502
124	0xbd0f16c0	-0.034933805
125	0xbeb36a45	-0.35042015
126	0x3efc3aa0	0.49263477
127	0xbeae7d55	-0.34079996
128	0xbec41ab7	-0.38301632
129	0xbe90cdd3	-0.2828203
130	0x3e8f9678	0.28044486
131	0xbeff9cbc	-0.49924266
132	0x3e9945ee	0.29936165
133	0x3d879a6d	0.06621251
134	0xbe99a160	-0.30005932
135	0x3e41fcf5	0.18944152
136	0x3ec6fe6f	0.38865992
137	0xbe9a94e4	-0.3019172
138	0xbe330060	-0.17480612
139	0xbe41a44d	-0.18910332
140	0xbeb8ec60	-0.3611784
141	0x3e6a44da	0.22877827
142	0x3e6b1b5b	0.22959654
143	0x3e92d32e	0.28676742
144	0xbebe0f33	-0.3712097
145	0x3e216c41	0.15763952
146	0xbe63e80d	-0.22256489
147	0x3d60a75f	0.054847118
148	0xbecf8974	-0.40534556
149	0x3e4c8e0c	0.19976062
150	0x3e8ac339	0.27102068
151	0x3e5bd6ed	0.21468706
152	0x3f01c5e6	0.50692594
153	0xbdfda017	-0.1238405
154	0xbdb22a78	-0.086995065
155	0xbe01c7c3	-0.1267386
156	0x3e0b455d	0.13600679
157	0x3eda81b3	0.42677078
158	0xbeb5932e	-0.35463852
159	0x3ec5f68d	0.38664666
160	0xbe5804ab	-0.2109553
161	0xbd84bf54	-0.064818054
162	0xbf0f0fd0	-0.558835
163	0x3ea911b8	0.3302133
164	0xbf0e68c1	-0.5562859
165	0xbdfdb174	-0.12387362
166	0xbe193355	-0.14960988
167	0xbe20f4fb	-0.15718453
168	0xbe3028b0	-0.17203021
169	0x3e1ecede	0.15508601
170	0xbdd8c1ce	-0.1058384
171	0x3ecee0c0	0.40405846
172	0xbda8e6c6	-0.082471415
173	0xbe1f6554	-0.15565997
174	0x3dfa68fa	0.12227054
175	0xbee1594f	-0.4401345
176	0x3ecf71c1	0.40516475
177	0x3dbf213e	0.09332512
178	0x3daa29a1	0.08308721
179	0x3d5073b7	0.050891604
180	0x3dd034b2	0.10166301
181	0xbe8c37d0	-0.27386332
182	0x3da0152c	0.07816538
183	0x3e8df405	0.27725235
184	0x3d171c48	0.036892205
185	0x3eb317ad	0.34979
186	0x3db17e33	0.08666649
187	0x3e80a4f5	0.25125852
188	0xbdbaaccd	-0.091149904
189	0xbe1273b4	-0.1430195
190	0xbdfc8124	-0.12329319
191	0x3d973960	0.0738399
192	0xbe6a8849	-0.22903551
193	0xbe0349d8	-0.12821138
194	0x3e3f692e	0.18692467
195	0x3d13dcca	0.036099233
196	0x3ea5d519	0.32389143
197	0xbe3adfe7	-0.18249474
198	0xbe053204	-0.1300736
199	0x3cd73876	0.02627204
200	0x3f025445	0.50909835
201	0xbeee39a6	-0.46528357
202	0xbd3f22c9	-0.046664033
203	0x3e8010b4	0.25012743
204	0x3ea16773	0.31524238
205	0xbefa1ba9	-0.48849228
206	0xbf0d072c	-0.5508907
207	0xbcaae766	-0.020862292
208	0x3d0a5884	0.03377582
209	0x3effbe68	0.49949956
210	0x3e1ce189	0.1532041
211	0xbdc94adb	-0.09828731
212	0x3e46ee4b	0.19426839
213	0x3dcb84bc	0.099374264
214	0xbe95366a	-0.29143077
215	0x3d626b10	0.055277884
216	0xbe6a8480	-0.22902107
217	0xbdebf26c	-0.11520848
218	0x3e9ed450	0.31021357
219	0xbdd10e7a	-0.10207839
220	0x3ea755ac	0.3268255
221	0xbf05b8fd	-0.52235395
222	0x3e522c9e	0.20524833
223	0x3d9e09f5	0.07716743
224	0x3d16fe56	0.036863647
225	0xbeb02d99	-0.34409788
226	0x3d2bcdb8	0.041944236
227	0x3e102dff	0.14080046
228	0x3e4f2f4b	0.20232885
229	0x3f0e254d	0.55525666
230	0xbdd31a34	-0.10307732
231	0xbe8d444b	-0.27591166
232	0xbe8127f4	-0.25225794
233	0xbe452daf	-0.19255708
234	0xbd9fe670	-0.07807624
235	0x3ef52b7f	0.47884747
236	0x3d860778	0.06544393
237	0xbe520303	-0.20508961
238	0xbec7b439	-0.39004686
239	0x3e61eef0	0.22063804
240	0xbf00b554	-0.50276685
241	0x3c118316	0.008881351
242	0xbea59920	-0.32343388
243	0xbda622f2	-0.08112134
244	0xbccd77e5	-0.025081584
245	0x3e871299	0.26381376
246	0x3e384f9a	0.17999116
247	0xbe2801f9	-0.16407003
248	0xbee245d8	-0.44193912
249	0xbef70590	-0.4824643
250	0xbf00a5c8	-0.5025296
251	0xbc147179	-0.009060257
252	0x3e815658	0.25261188
253	0xbe668f8d	-0.22515698
254	0xbcd051b5	-0.025429586
255	0x3d5d4b50	0.0540269

linear1.bias f4 [256]
0	0xbde9d5f8	-0.114177644
1	0xbe0c083d	-0.13675018
2	0xbdec9745	-0.1155229
3	0xbd865bea	-0.065605
4	0x3edf821f	0.43653962
5	0xbdf7c804	-0.12098697
6	0x3d198549	0.037480626
7	0xbdfa9bc8	-0.12236744
8	0xbe6fdb5c	-0.23423523
9	0xbdc24d43	-0.09487393
10	0xbd4e9912	-0.050438948
11	0x3d8e0637	0.06934779
12	0xbdaf6f52	-0.085661545
13	0xbe1153af	-0.14192079
14	0x3cca1d3b	0.024672141
15	0x3d3ce176	0.046113454
16	0xbdfd8770	-0.12379348
17	0xbde04a4d	-0.10951672
18	0x3e76f728	0.2411772
19	0xbcde6f8d	-0.027152801
20	0xbe6578d8	-0.2240938
21	0xbc875283	-0.016518837
22	0x3e54adfb	0.20769493
23	0x3d51958d	0.051168013
24	0x3d29a46e	0.041416578
25	0x3e63dcbd	0.22252174
26	0xbe17a2e7	-0.14808236
27	0xbe1a3f47	-0.15063201
28	0xbd4bd23e	-0.04976105
29	0xbd6e066b	-0.05811159
30	0x3e889807	0.26678488
31	0xbec21804	-0.37908947
32	0xbdb68b6e	-0.08913313
33	0xbd589b85	-0.05288269
34	0xbe78914e	-0.2427418
35	0xbe6f708f	-0.23382781
36	0xbe1a3924	-0.1506086
37	0x3e7bda18	0.24594915
38	0xbd2fe5e9	-0.04294387
39	0xbe6004d2	-0.21876839
40	0xbe862468	-0.2619965
41	0xbe85e434	-0.26150668
42	0x3ca87048	0.020561352
43	0xbd9b701a	-0.07589741
44	0x3d64fcff	0.05590534
45	0xbe00595f	-0.12534092
46	0xbeaf83c2	-0.3428021
47	0xbd99c49b	-0.07508203
48	0xbd79124e	-0.060808472
49	0xbeabe5c3	-0.33573732
50	0x3da3c5a6	0.07996683
51	0xbe9587ed	-0.29205266
52	0xbea27c1e	-0.3173532
53	0xbe2b9be6	-0.1675869
54	0x3d5aac86	0.053387187
55	0xbea903ca	-0.33010703
56	0x3d9c2202	0.07623674
57	0xbca02f60	-0.01955384
58	0xbd2171f0	-0.0394153
59	0x3ec7a44c	0.38992536
60	0xbddac138	-0.10681385
61	0xbe4fc483	-0.20289807
62	0xbe860602	-0.2617646
63	0x3ea12dae	0.31480163
64	0x3d568910	0.052376807
65	0x3e557d94	0.20848686
66	0x3e0fb431	0.14033581
67	0xbdfd22d3	-0.12360158
68	0xbc8f33cc	-0.017480753
69	0xbeabf6fc	-0.33586872
70	0x3eae61aa	0.34058887
71	0xbd81ec3b	-0.063438855
72	0x3ec47e03	0.3837739
73	0x3de48bd4	0.111594826
74	0x3dab1c83	0.083550476
75	0xbe868e5f	-0.26280496
76	0xbdb2b82a	-0.08726533
77	0x3c07fd4f	0.00830014
78	0xbdeda685	-0.11604027
79	0x3e146e98	0.14495313
80	0xbd670f55	-0.056411106
81	0xbd988fe3	-0.07449319
82	0xbe33fdcf	-0.17577289
83	0xbe83fa4f	-0.25776908
84	0xbdd30005	-0.10302738
85	0xbc94e7a9	-0.01817687
86	0x3da028a1	0.07820249
87	0xbdd1c977	-0.102435045
88	0xbe99be58	-0.30028033
89	0xbe2d64cc	-0.16932982
90	0x3ea9ffdc	0.33203018
91	0xbc40e6c7	-0.011773772
92	0x3c4280f2	0.011871563
93	0x3cfd42c0	0.030915618
94	0xbdd1984b	-0.10234126
95	0xbe7fd19b	-0.24982302
96	0x3e9df994	0.30854475
97	0xbdbdb7fe	-0.09263609
98	0xbd4f7435	-0.050647933
99	0xbe44d9cf	-0.19223712
100	0xbebc5bc4	-0.36788762
101	0x3e25e905	0.16202171
102	0x3d5bf2c8	0.05369833
103	0x3ebb2582	0.36552054
104	0xbe21ae32	-0.15789106
105	0x3ea7d587	0.32780096
106	0xbe9cf5ff	-0.3065643
107	0xbd0b43a9	-0.034000073
108	0xbe38ad2d	-0.18034811
109	0x3dd8d171	0.10586823
110	0xbe7c9f37	-0.2467011
111	0xbd6d17ec	-0.05788414
112	0xbe9f65b0	-0.3113227
113	0x3c020bd1	0.007937388
114	0xbe17daa5	-0.148295
115	0xbdfb7757	-0.12278622
116	0xbe82d1fe	-0.25550836
117	0xbe22f77f	-0.15914725
118	0xbcc76556	-0.024340313
119	0xbe0ae16a	-0.13562551
120	0x3dd214cd	0.10257874
121	0x3de873d5	0.11350218
122	0xbe9102c9	-0.28322437
123	0x3b793dcc	0.0038031219
124	0xbd2cca3a	-0.042185046
125	0xbd3779c0	-0.044793844
126	0x3e4e577f	0.20150565
127	0xbe26d273	-0.16291218
128	0x3dd62e47	0.104580455
129	0xbd967ae9	-0.07347662
130	0x3d641629	0.055685196
131	0xbe72bca7	-0.23704778
132	0x3e7fc461	0.24977256
133	0x3e117aab	0.1420695
134	0x3e2d0316	0.16895708
135	0xbe175420	-0.14778185
136	0x3e4448f8	0.1916846
137	0x3d9701bf	0.0737338
138	0x3ec0e550	0.37674952
139	0xbdfce24a	-0.12347849
140	0xbe864125	-0.26221576
141	0xbe7f90e7	-0.2495762
142	0x3e6c970e	0.23104498
143	0x3dc52a47	0.096272044
144	0x3dbb214d	0.09137211
145	0x3d5dddbe	0.054166548
146	0xbe2d28bc	-0.1691007
147	0x3d1625d3	0.036657166
148	0x3e5b809a	0.21435776
149	0xbdcb5dd8	-0.09930009
150	0xbe51210a	-0.2042276
151	0xbd7e4204	-0.062074676
152	0x3d43a90e	0.047768645
153	0x3e0dafc7	0.13836585
154	0xbe6c5a58	-0.23081338
155	0xbd8ebb3f	-0.06969308
156	0xbdfebf7a	-0.12438865
157	0x3e8ad067	0.27112123
158	0xbce297df	-0.027660308
159	0xbb474eaa	-0.0030411878
160	0x3d972521	0.07380129
161	0xbd52b729	-0.051444206
162	0xbe0dc282	-0.1384373
163	0xbe25a849	-0.16177477
164	0xbe234bfa	-0.15946952
165	0xbd662f43	-0.056197416
166	0xbe707c5b	-0.23484938
167	0xbd3e4f6a	-0.046462454
168	0x3e0bb6db	0.13643973
169	0xbe698dae	-0.22807953
170	0xbc93d05b	-0.018043688
171	0xbc92f87a	-0.017940748
172	0x3d6f98eb	0.058495443
173	0x3de23b5f	0.110464804
174	0x3dba466e	0.09095465
175	0xbedae0f5	-0.42749754
176	0xbddc6abe	-0.10762547
177	0x3e1e6ea4	0.15471894
178	0xbe25d798	-0.16195524
179	0x3dba1208	0.090854704
180	0xbcb92c2f	-0.022604076
181	0xbe6a408b	-0.22876184
182	0x3dca2c99	0.098717876
183	0xbcc70ded	-0.024298633
184	0xbdf22c67	-0.11824875
185	0x3d90dd89	0.070735045
186	0x3caad314	0.020852603
187	0x3e904b4a	0.2818244
188	0xbdf037ac	-0.117293686
189	0x3e9c4246	0.30519313
190	0x3d967b43	0.07347729
191	0xbbe96f22	-0.0071238438
192	0xbd90dcc1	-0.070733555
193	0xbe15347d	-0.14570804
194	0xbe7f3e3f	-0.24926089
195	0x3e323103	0.17401509
196	0xbeecd2ce	-0.4625458
197	0xbdb8264e	-0.08991681
198	0xbe609d8c	-0.219351
199	0xbe4c31d7	-0.19940887
200	0xbcf4c348	-0.029878274
201	0xbdb13d73	-0.08654299
202	0x3d61b11f	0.055100556
203	0x3eaa3876	0.332462
204	0x3d1cdb58	0.03829512
205	0x3e3724d5	0.17885144
206	0x3c45dcdb	0.012076582
207	0xbd30bdfe	-0.04314994
208	0xbe902402	-0.28152472
209	0xbda839fe	-0.08214186
210	0x3d597b1a	0.053095914
211	0xbea04731	-0.31304315
212	0x3ebc605a	0.3679226
213	0xbc096ed0	-0.008388236
214	0xbe466f27	-0.19378339
215	0xbde3bc34	-0.11119881
216	0x3b506508	0.00317985
217	0xbc36d85c	-0.0111599825
218	0xbbc24e9a	-0.00592978
219	0x3d083b47	0.033259656
220	0x3cee8c09	0.029119508
221	0x3e71b4c5	0.23604114
222	0xbce6e817	-0.028186841
223	0xbe077d99	-0.13231505
224	0x3deefcb9	0.11669297
225	0x3e97ec5f	0.29672524
226	0x3e15c489	0.14625753
227	0xbd951550	-0.07279456
228	0xbe294c55	-0.16533025
229	0xbe943f0f	-0.2895436
230	0xbdb1bbbb	-0.08678385
231	0x3d2410fa	0.040055253
232	0xbe4e3e86	-0.20141038
233	0x3d9f4e13	0.07778563
234	0xbdaaa0c1	-0.083314426
235	0xbe86004e	-0.26172107
236	0x3db4e867	0.0883339
237	0x3d9b91db	0.07596179
238	0xbd9c6262	-0.076359525
239	0x3e95dd25	0.29270282
240	0x3c486039	0.0122299725
241	0xbea91459	-0.33023337
242	0xbea709ac	-0.32624567
243	0x3e896b69	0.2683976
244	0xbeaa36c0	-0.33244896
245	0xbe905274	-0.28187907
246	0xbdd04f29	-0.101713486
247	0xbe666c4a	-0.22502246
248	0x3e64be36	0.22338185
249	0xbe2b710f	-0.16742347
250	0x3deb97fb	0.11503597
251	0x3e901370	0.2813983
252	0x3e0594e1	0.13045074
253	0xbea833f1	-0.32852128
254	0x3e8e6d1a	0.27817613
255	0xbd434edf	-0.04768264

linear2.weight f4 [3, 256]
0	0xbe4d733a	-0.20063487
1	0xbe2ea1a9	-0.17053856
2	0x3d74764e	0.059683137
3	0xbe4e61cb	-0.20154493
4	0x3e9070d9	0.28211096
5	0xbc66c23d	-0.014084396
6	0x3ddc2f22	0.10751177
7	0xbee3ec84	-0.44516385
8	0xbd7ca020	-0.061676145
9	0x3f02894f	0.50990766
10	0x3e0ff0d5	0.14056714
11	0x3ec913e9	0.39273003
12	0xbec3cebb	-0.3824366
13	0xbed6429c	-0.41847694
14	0x3eb1ee77	0.34752247
15	0xbed06148	-0.4069922
16	0xbe1ac5fe	-0.1511459
17	0xbe97faf8	-0.2968366
18	0x3ee044a4	0.4380237
19	0xbed25f27	-0.4108822
20	0xbe9d8c4f	-0.3077111
21	0x3e89b4a8	0.26895642
22	0xbf1132e9	-0.5671831
23	0xbe9dfaa9	-0.308553
24	0x3eb27e2f	0.34861895
25	0x3db30c44	0.08742574
26	0x3b9b080a	0.004731183
27	0xbe50f549	-0.20406069
28	0xbd8b8cf1	-0.06813992
29	0xbdb2e41a	-0.08734913
30	0x3ef3a5f0	0.47587538
31	0xbe211906	-0.15732202
32	0x3e565fe7	0.20935021
33	0x3e981d84	0.2971002
34	0xbdbfc553	-0.093638085
35	0xbdc41a76	-0.095753595
36	0xbde9d6ae	-0.114179
37	0x3e99c72d	0.30034772
38	0xbc70d6a4	-0.014699612
39	0xbd6cdc98	-0.057827562
40	0xbe2ed8f2	-0.17074946
41	0xbf1557f2	-0.5833732
42	0xbd7d689a	-0.061867334
43	0xbd92a4c5	-0.071603335
44	0x3eba76dc	0.36418808
45	0xbe024b3c	-0.12724012
46	0xbda3a79d	-0.07990954
47	0x3e99c736	0.30034798
48	0x3e9587ae	0.29205078
49	0xbde4d13d	-0.111727215
50	0xbea2b369	-0.31777504
51	0xbe73b965	-0.23801191
52	0x3cd9467a	0.026522864
53	0xbd8cdc9a	-0.06878014
54	0x3c42f4de	0.011899201
55	0xbed4c838	-0.41559005
56	0x3cb0aebd	0.021567697
57	0x3aa1636c	0.0012312955
58	0x3e5ba1e0	0.21448469
59	0x3e8f7599	0.28019407
60	0x3dfe167b	0.124066316
61	0xbd54673a	-0.051856257
62	0xbe966c15	-0.29379335
63	0x3e19cdba	0.15019885
64	0xbe6965d6	-0.22792754
65	0x3e22c7cc	0.15896529
66	0x3e5da2bd	0.21644111
67	0xbd275018	-0.040847868
68	0xbf049a29	-0.5179773
69	0x3c7250a4	0.014789734
70	0x3efdaef2	0.49547535
71	0xbde103a4	-0.109870225
72	0x3e92fc93	0.28708324
73	0x3e86130e	0.26186413
74	0xbacf9f62	-0.0015840346
75	0x3c574483	0.013138893
76	0x3d6cc349	0.057803426
77	0x3ed34b1f	0.4126825
78	0xbe8b2b37	-0.27181408
79	0x3ed769d9	0.42072943
80	0xbd977ea3	-0.07397201
81	0xbd1a4396	-0.03766211
82	0xbe27ed5e	-0.16399142
83	0xbeda5d87	-0.4264948
84	0x3cac4386	0.021028291
85	0xbe53731e	-0.20649382
86	0x3e582a31	0.21109845
87	0x3ed805b1	0.42191842
88	0xbe43c438	-0.1911782
89	0xbe13e29b	-0.14441912
90	0x3e3c5aa8	0.18393958
91	0xbecda261	-0.40162948
92	0xbe81357c	-0.25236118
93	0xbf099d56	-0.537557
94	0xbed8e34e	-0.4236092
95	0xbe8accab	-0.27109274
96	0x3e2c74fa	0.16841498
97	0xbefc299f	-0.49250504
98	0xbe2dbc94	-0.16966468
99	0xbde8f552	-0.11374916
100	0xbcb91635	-0.022593597
101	0x3eac0c6b	0.33603224
102	0x3de81d33	0.11333694
103	0x3e8ab466	0.27090758
104	0x3e862286	0.26198214
105	0x3e565b5e	0.20933291
106	0xbdacd610	-0.08439267
107	0xbe082404	-0.13294989
108	0xbe8fb9ca	-0.28071433
109	0xbd33fd27	-0.043942597
110	0x3c3ba46a	0.011452774
111	0x3ec5f2d5	0.3866183
112	0xbe3a5d6a	-0.18199697
113	0x3e448c4c	0.19194144
114	0xbe978210	-0.29591417
115	0xbdee8106	-0.11645703
116	0xbeb76e5b	-0.35826382
117	0xbe9f07c2	-0.31060606
118	0xbbf77d47	-0.007552776
119	0xbd9a36b9	-0.07529969
120	0xbd596b56	-0.05308088
121	0x3ec3a31d	0.38210383
122	0xbe58c07a	-0.21167174
123	0x3e297b79	0.16551007
124	0xbee1c434	-0.44095004
125	0xbdb66edd	-0.08907864
126	0x3e3d3345	0.18476589
127	0xbe02a1ef	-0.12757085
128	0xbcb8358d	-0.022486473
129	0x3e57d5da	0.21077672
130	0x3e2c75d6	0.16841826
131	0xbd2006a6	-0.03906884
132	0x3e5d3f7f	0.21606253
133	0xbcd1fe64	-0.025633998
134	0x3dff805f	0.12475657
135	0xbda0d547	-0.078531794
136	0x3e014e12	0.12627438
137	0xbc198877	-0.009370915
138	0x3e5f673f	0.21816729
139	0xbe1f6a00	-0.1556778
140	0xbf09906f	-0.53736013
141	0xbe476973	-0.1947382
142	0x3e023d59	0.12718715
143	0xbdb95be4	-0.0905073
144	0x3e28182d	0.16415472
145	0xbe5c616a	-0.21521536
146	0x3b5eb200	0.0033980608
147	0xbccfad89	-0.025351303
148	0x3eaefb08	0.34175897
149	0xbdd7e13b	-0.10541006
150	0xbd8e88de	-0.06959699
151	0xbdbb0fe3	-0.091338895
152	0x3deb3d3e	0.114862904
153	0x3d4a0dae	0.049329452
154	0xbe29a7e0	-0.16567945
155	0xbdf327f7	-0.11872857
156	0xbd5e909b	-0.054337125
157	0x3ec3cfc2	0.38244444
158	0x3e9321d7	0.28736755
159	0xbeb901eb	-0.36134276
160	0xbd4c3925	-0.049859185
161	0xbe019166	-0.12653121
162	0xbeaa07e4	-0.33209145
163	0xbe8dd912	-0.27704674
164	0xbd0803d6	-0.033206783
165	0xbed68ca3	-0.41904172
166	0x3c3d882a	0.011568109
167	0xbe8e01e3	-0.27735814
168	0x3d10c570	0.03534454
169	0xbdc9ef9b	-0.09860154
170	0x3e8a109a	0.2696579
171	0xbdc39cd6	-0.095513985
172	0xbdc0a1a4	-0.094058305
173	0xbc2d0a9b	-0.010561611
174	0xbe1b5935	-0.15170749
175	0xbe89dd94	-0.26926863
176	0x3c8c85b1	0.017153593
177	0x3dd7691e	0.105180964
178	0xbe622562	-0.22084573
179	0xbcaba0ff	-0.020950792
180	0xbebadba5	-0.364957
181	0x3bf82ff2	0.007574075
182	0xbb2d70b9	-0.0026464893
183	0x3cca59d7	0.024701042
184	0xbef2cefc	-0.47423542
185	0xbe416c7a	-0.18889037
186	0x3e4dd389	0.20100226
187	0x3db29ebe	0.08721684
188	0xbf075de0	-0.52877617
189	0x3eed9a09	0.46406582
190	0x3e926d4f	0.2859902
191	0xbf0364b0	-0.5132551
192	0x3e39ec1a	0.18156472
193	0x3ec476ae	0.38371795
194	0xbeae073c	-0.33989894
195	0xbd309cac	-0.043118164
196	0xbc0f42a3	-0.008743915
197	0xbde7a7d9	-0.11311311
198	0x3ed3779c	0.41302192
199	0xbc76486b	-0.015031914
200	0x3b920f16	0.004457365
201	0xbdbbebf8	-0.09175867
202	0xbe6e2bd9	-0.23258914
203	0x3e9f72ac	0.31142175
204	0xbe61bab7	-0.22043882
205	0x3e4da325	0.20081766
206	0x3c9eae8a	0.019370336
207	0xbeb89c7f	-0.36056897
208	0xbda402b2	-0.080083266
209	0xbefcd814	-0.49383605
210	0xbe8e5122	-0.27796274
211	0x3c457062	0.01205072
212	0x3ef2cba6	0.47420996
213	0x3e9e40c9	0.30908802
214	0xbcf83a53	-0.030301249
215	0xbd567e67	-0.05236664
216	0x3e6b2000	0.22961426
217	0xbe9a4d67	-0.30137178
218	0xbcb15c5f	-0.021650491
219	0x3e923a20	0.2855997
220	0xbf29944c	-0.6624191
221	0x3e238b57	0.15971123
222	0xbee10a72	-0.43953282
223	0xbdab780b	-0.08372506
224	0x3e806bc9	0.25082234
225	0x3eaf4ae5	0.34236827
226	0x3e1d8b85	0.15385254
227	0xbedd1db2	-0.43186718
228	0xbd0f4074	-0.034973577
229	0xbe1e33da	-0.15449467
230	0xbea37244	-0.31923115
231	0xbe209704	-0.15682608
232	0xbebf1501	-0.37320712
233	0xbd546c89	-0.05186132
234	0x3e94c429	0.29055908
235	0xbe12df2e	-0.14342949
236	0x3dc5c64a	0.09656961
237	0x3e1027af	0.14077638
238	0xbeb13225	-0.3460857
239	0x3dff39eb	0.12462219
240	0xbd98615c	-0.07440445
241	0xbe94c306	-0.2905504
242	0x3d3b35f8	0.045705765
243	0x3eab6baa	0.3348058
244	0xbd18a9ed	-0.03727143
245	0xbc19fd66	-0.009398794
246	0xbf07cfb3	-0.530513
247	0xbed0b875	-0.4076573
248	0x3ea2a927	0.31769678
249	0xbd97721c	-0.073948115
250	0x3e24c088	0.1608907
251	0x3ea2e85f	0.3181791
252	0xbd44595e	-0.04793679
253	0xbd8d183f	-0.0688939
254	0x3d7a85d9	0.061162803
255	0x3e8285ab	0.25492606

linear2.bias f4 [3]
0	0x3e00fa70	0.12595534
1	0x3c7b2c28	0.015330352
2	0xbd73cbc1	-0.059520487
